.dart_tool/chrome-device/Default/optimization_guide_prediction_model_downloads/f34e6538-1d65-4117-a972-a5dbf0ff4503/model.tflite (tflite, 407748 bytes, 166 tensors)

context_transformer_0/bottleneck_input/norm/add f4 [32]
0	0xbd7cf182	-0.061753757
1	0x3d75ffb2	0.060058303
2	0x3d5dd335	0.0541565
3	0x3e06b938	0.13156593
4	0xbdc616e0	-0.09672332
5	0xbe543c78	-0.20726192
6	0xba69ee8c	-0.0008923791
7	0xba3efa95	-0.00072852644
8	0x3bda84c0	0.006668657
9	0xbc9077a4	-0.017635174
10	0xbd47a4ac	-0.048741028
11	0xbd7aa2f7	-0.06119057
12	0xbe0d8982	-0.13821986
13	0x3c80f556	0.015741985
14	0x3c210df6	0.009829989
15	0xbb7cf013	-0.0038595244
16	0xbcd0b02b	-0.025474628
17	0xbd088f50	-0.0333398
18	0xbcb49b12	-0.0220466
19	0x3c782fcd	0.015148115
20	0x3bed8719	0.007248771
21	0xbda410b3	-0.080109976
22	0x3ca10ae6	0.019658517
23	0x3c87d08b	0.016578933
24	0x3d5e60e3	0.054291617
25	0xbd9819e0	-0.0742681
26	0x3adb844c	0.0016747802
27	0x3dab7368	0.08371621
28	0xbd52e7d9	-0.05149064
29	0x3e2185a7	0.1577364
30	0xbd02478a	-0.031806506
31	0x3d479c70	0.048733175

context_transformer_1/bottleneck_input/norm/add f4 [32]
0	0x3de4d650	0.11173689
1	0x3dd73e69	0.10509951
2	0xbd2f92b2	-0.04286451
3	0x3d1342fb	0.03595255
4	0x3d009301	0.031390194
5	0xbc498d60	-0.012301773
6	0x3c54a862	0.012979599
7	0xbd2a4f0e	-0.0415793
8	0xbd71aa33	-0.059000205
9	0xbbd4f61c	-0.006499065
10	0xbeb77f7c	-0.3583945
11	0xbe4b65fe	-0.19863126
12	0xbd882213	-0.06647124
13	0xbdba43c5	-0.09094957
14	0xbd7ff6a5	-0.062491078
15	0x3d841bf8	0.06450647
16	0xbe7caf38	-0.24676216
17	0xbc35deb6	-0.011100462
18	0xbe05644e	-0.13026544
19	0xbdd483cb	-0.103767
20	0xbc9c59b0	-0.019085735
21	0x3cc75e6c	0.024337016
22	0x3c8f10c9	0.017464058
23	0x3b5ae728	0.003340194
24	0xbc92f7e4	-0.01794047
25	0x3c2b53d2	0.010456996
26	0x3e5a3b74	0.21311742
27	0x3d88d3de	0.066810355
28	0xbd5a08d6	-0.053231083
29	0x3ca593fe	0.02021217
30	0x3d287ae2	0.041132815
31	0x3d2ee093	0.04269464

mention_transformer_0/bottleneck_input/norm/add f4 [32]
0	0x3d673199	0.056443784
1	0x3df70d43	0.12063076
2	0xbd3525f0	-0.044225633
3	0xbd715f74	-0.05892892
4	0xbe050ed2	-0.12993935
5	0x3da5c0ef	0.0809344
6	0x3dfcbf26	0.12341146
7	0x3d58b209	0.052904163
8	0x3d8b7b6a	0.06810649
9	0x3d208040	0.03918481
10	0x3d92132f	0.07132565
11	0xbdddb327	-0.10825186
12	0xbd333761	-0.043753985
13	0xbe8e5727	-0.27800867
14	0xbdede846	-0.11616568
15	0xbe3c3aba	-0.18381777
16	0xbd5599b7	-0.052148547
17	0xbd94a2b0	-0.07257593
18	0xbe367b66	-0.1782051
19	0x3ea4a2ec	0.3215555
20	0x3d23ccdc	0.03999029
21	0x3d9127c6	0.07087664
22	0x3e42463e	0.18972108
23	0x3e522580	0.20522118
24	0xbe8bb069	-0.27283028
25	0xbddfd338	-0.10928959
26	0xbd883b66	-0.06651954
27	0x3caaeb0a	0.020864028
28	0x3c9a4a23	0.01883418
29	0xbe531d1f	-0.20616578
30	0x3e42622c	0.18982762
31	0xbc766e49	-0.0150409425

mention_transformer_1/bottleneck_input/norm/add f4 [32]
0	0xbdf00a7c	-0.1172075
1	0x3c09ffc8	0.008422799
2	0xbe1397b4	-0.14413339
3	0x3e6f9778	0.23397624
4	0x3e43a73b	0.19106762
5	0xbe1139f3	-0.14182262
6	0xbe51dc0d	-0.20494099
7	0x3e4bc51c	0.1989941
8	0xbe09d237	-0.13459097
9	0x3d8b4e16	0.06802003
10	0x3d5b7b36	0.0535843
11	0x3dfdd066	0.123932645
12	0xbdae2c1f	-0.08504509
13	0x3d3a27e1	0.045448188
14	0x3e6be19a	0.23035279
15	0x3dccb70b	0.0999585
16	0xbdc02672	-0.09382333
17	0xbe6ba5a7	-0.2301241
18	0x3ea87552	0.32902008
19	0x3da5dd98	0.08098906
20	0x3db2cc96	0.08730428
21	0x3e16e4bc	0.14735693
22	0xbeaf6e38	-0.34263778
23	0x3de2dee0	0.11077666
24	0xbe68caf2	-0.22733667
25	0xbe303f1b	-0.17211573
26	0xbe845494	-0.25845778
27	0xbe49367b	-0.19649689
28	0x3e8baf15	0.27282014
29	0x3e25438c	0.16139048
30	0xbda2837a	-0.079352334
31	0xbe5ddafe	-0.2166557

context_transformer_0/attention/value/add;context_transformer_0/attention/value/einsum/Einsum;context_transformer_0/attention/value/add/ReadVariableOp/resource f4 [32]
0	0x3d1b8432	0.03796787
1	0xbde06c53	-0.10958161
2	0xbc12b382	-0.008953931
3	0xbdb6d33d	-0.08927009
4	0x3cbfba31	0.023404213
5	0x3d2cfe40	0.04223466
6	0xbd5e243d	-0.05423378
7	0xbc5e0bec	-0.013552647
8	0x3cc8d50a	0.024515647
9	0xbd2a0ef9	-0.041518185
10	0xbbab98f4	-0.0052367393
11	0x3d59ab8d	0.05314212
12	0x3d00b955	0.031426746
13	0x3d030b51	0.031993214
14	0x3cfe0be0	0.031011522
15	0xbc0232d7	-0.0079466915
16	0x3c10c3f5	0.008835782
17	0xbd452665	-0.04813232
18	0x3c8c4d76	0.01712678
19	0xbd8540a8	-0.06506473
20	0x3d3aaa26	0.045572422
21	0xbc30a04b	-0.010780404
22	0xbcf370f2	-0.029716942
23	0xbd5f403b	-0.054504614
24	0x3d53ca16	0.051706396
25	0x3d0fbef1	0.035094205
26	0xbc40845a	-0.011750305
27	0x3d31d2cf	0.043413933
28	0xbd39f274	-0.045397237
29	0xbc0c51eb	-0.008564453
30	0x3cb9b25a	0.022668052
31	0x3beaaef1	0.007161968

context_transformer_0/bottleneck_input/norm/mul f4 [32, 32]
0	0xbe9c4584	-0.30521786
1	0xbe9639e7	-0.2934105
2	0xbdea2b91	-0.11434091
3	0x3cf949df	0.030430732
4	0x3eed91f3	0.46400413
5	0xbe4f6394	-0.2025283
6	0x3ea44a03	0.32087716
7	0x3ef0a2e9	0.4699929
8	0x3c6bd273	0.014393437
9	0xbe221df7	-0.15831743
10	0x3e2ca389	0.16859259
11	0x3df9adda	0.12191363
12	0x3e2ffb63	0.1718574
13	0xbcf1c6b7	-0.0295137
14	0x3e944611	0.28959706
15	0x3e48f59e	0.19624946
16	0xbec98061	-0.39355758
17	0x3f1e1061	0.6174374
18	0xbddf8a0c	-0.10915002
19	0x3d6321c6	0.05545213
20	0x3d8559be	0.065112576
21	0x3dd619aa	0.10454114
22	0x3e0260ff	0.12732314
23	0xbd99c546	-0.0750833
24	0x3ea599e8	0.32343984
25	0x3ec9bfa8	0.39404035
26	0x3e521dbb	0.20519154
27	0x3eb684d4	0.35648215
28	0xbd3b690c	-0.045754477
29	0x3e58892b	0.21146075
30	0xbe93cf64	-0.28869164
31	0x3e255eed	0.16149493
32	0xbdfcf7c4	-0.12351945
33	0xbdd55862	-0.10417248
34	0x3dcd8473	0.10035028
35	0xbe540183	-0.20703702
36	0x3e8a1837	0.269716
37	0xbdd455b5	-0.1036791
38	0x3dfe3221	0.12411905
39	0xbc782778	-0.015146129
40	0xbd307e6d	-0.04308932
41	0xbe759427	-0.23982297
42	0x3e62f911	0.22165324
43	0x3dcf1acb	0.10112532
44	0xbdfa1f20	-0.12212968
45	0x3e065675	0.13118918
46	0xbd23194c	-0.039819047
47	0xbdf9834b	-0.12183245
48	0xbe3a4869	-0.18191685
49	0x3d9bd71d	0.07609389
50	0xbd9b9333	-0.075964354
51	0x3ecc411b	0.39893422
52	0x3e0e5f17	0.13903461
53	0xbd6efc8d	-0.05834632
54	0x3e4a689b	0.19766466
55	0xbe690d05	-0.22758873
56	0xbd9c15c9	-0.07621343
57	0xbc787970	-0.015165672
58	0x3da2f223	0.0795634
59	0x3da9e445	0.08295492
60	0xbcbce2ec	-0.023057424
61	0x3d91d1a8	0.07120067
62	0xbea2c70a	-0.3179248
63	0xbe66e02f	-0.22546457
64	0xbd07711b	-0.03306685
65	0x3ea9d433	0.33169708
66	0x3cd48b5a	0.025945354
67	0x3d8cd1c0	0.06875944
68	0xbed607f4	-0.41802943
69	0xbd9ad2ba	-0.07559724
70	0xbdbef025	-0.09323148
71	0x3e789c9d	0.24278493
72	0x3d1d3878	0.03838393
73	0x3e3f8d63	0.18706279
74	0x3e159b46	0.14610013
75	0x3e254443	0.16139321
76	0xbe93466a	-0.2876466
77	0x3c1f6a0a	0.0097298715
78	0x3e5aecc0	0.21379375
79	0x3d3b63b1	0.04574937
80	0x3dac5e25	0.08416394
81	0x3e89e040	0.26928902
82	0xbe73a3a4	-0.23792893
83	0xbd3e2a69	-0.046427164
84	0x3c15ca36	0.009142449
85	0x3cda40cc	0.026642226
86	0xbe796590	-0.2435515
87	0xbd3f490b	-0.04670052
88	0xbdad01d2	-0.08447613
89	0x3e8f4e0c	0.27989233
90	0xbd198917	-0.037484255
91	0xbe81e6b6	-0.2537133
92	0xbe0230e0	-0.12713957
93	0xbeabc376	-0.33547562
94	0xbddf993f	-0.10917901
95	0xbe0538b4	-0.13009912
96	0xbe487619	-0.195763
97	0xbec2122a	-0.37904483
98	0x3e851c31	0.2599807
99	0xbeded30d	-0.43520394
100	0x3ecb4cfe	0.39707178
101	0xbe519458	-0.20466745
102	0x3dd3be42	0.10339023
103	0x3ec29bb8	0.3800943
104	0x3e5daa91	0.21647097
105	0x3e34de82	0.17663005
106	0x3da587c4	0.08082536
107	0x3d09bbeb	0.03362648
108	0x3e45879d	0.19290014
109	0xbdcc2f51	-0.099699624
110	0x3e45c4b2	0.19313315
111	0x3e802eb3	0.2503563
112	0x3f0753af	0.52862066
113	0xbd4f8a0c	-0.05066876
114	0x3f131614	0.57455564
115	0xbebd0974	-0.36921275
116	0x3e2c430f	0.16822456
117	0x3d3504cd	0.04419403
118	0xbe69dcdb	-0.22838156
119	0xbe05b440	-0.13057041
120	0xbdafa304	-0.08576015
121	0x3ea057b0	0.313169
122	0x3c8aa4b4	0.01692424
123	0x3e96ee40	0.29478645
124	0xbd7ff18b	-0.062486213
125	0x3ed3d6a5	0.41374698
126	0xbe59f7b9	-0.21285905
127	0x3f1b8a27	0.6075768
128	0xbc567ddd	-0.013091532
129	0xbe5943d5	-0.21217282
130	0x3ed31592	0.41227394
131	0xbeb38236	-0.3506028
132	0x3dba98ef	0.09111201
133	0x3e2692df	0.16266964
134	0x3e6df779	0.23238935
135	0x3ed910ee	0.4239573
136	0x3ee0de03	0.43919381
137	0x3e7f4d94	0.24931937
138	0x3e6aa8e0	0.22915983
139	0xbd4ad8a3	-0.049523007
140	0xbed3ce30	-0.41368246
141	0xbe20546f	-0.15657209
142	0x3c804e76	0.015662413
143	0xbc156ac9	-0.009119698
144	0xbed453b8	-0.41470122
145	0x3ea8df1e	0.32982725
146	0x3eee31b0	0.46522284
147	0xbebc69bc	-0.3679942
148	0xbd881835	-0.06645242
149	0xbebbfa4a	-0.36714393
150	0x3ebe65be	0.37186998
151	0x3e5c09d3	0.21488123
152	0x3e15dae4	0.14634281
153	0x3edccccf	0.43125007
154	0x3d5c5f1c	0.05380164
155	0x3dad6ae8	0.084676564
156	0xbe29b8a6	-0.16574344
157	0x3d256b2b	0.040385406
158	0xbe8a1885	-0.26971832
159	0x3e58dc50	0.21177793
160	0xbe37ce15	-0.17949708
161	0x3ea46663	0.32109365
162	0xbd05e640	-0.032690287
163	0x3baef46c	0.005339196
164	0x3ed259d7	0.41084167
165	0xbe488c45	-0.19584759
166	0x3c1c13a1	0.009526164
167	0x3f18d5e3	0.59701365
168	0x3ef33d43	0.47507676
169	0xbe243112	-0.16034344
170	0xbc7d28e8	-0.015451647
171	0x3f04ba55	0.5184682
172	0xbc810046	-0.0157472
173	0xbee64c0e	-0.449799
174	0x3d9cb809	0.076522894
175	0x3eabba5d	0.3354062
176	0xbe90f2f0	-0.28310347
177	0xbe5e9f8c	-0.2174055
178	0x3ed1d835	0.40985265
179	0xbe6be3b4	-0.2303608
180	0xbea415b1	-0.320478
181	0xbf75a5d1	-0.9595614
182	0xbf31a930	-0.69398785
183	0x3e351ace	0.17686006
184	0xbe5dedc1	-0.21672727
185	0x3ea7a449	0.32742527
186	0x3c846d2d	0.01616534
187	0x3e88b306	0.26699084
188	0xbe0bcc13	-0.13652067
189	0xbded1ac0	-0.11577368
190	0x3eb4a7f0	0.35284376
191	0xbe5751aa	-0.21027246
192	0x3c70ef8c	0.01470555
193	0xbe5cd5cb	-0.2156593
194	0x3e86652d	0.26249066
195	0x3e973256	0.2953059
196	0x3e8eddba	0.2790354
197	0x3db14857	0.08656376
198	0xbd6edb8e	-0.058314852
199	0xbd397ce4	-0.04528512
200	0xbc2b7bf6	-0.010466566
201	0xbe931d52	-0.28733307
202	0xbe46eb1a	-0.19425622
203	0xbe687fcf	-0.22705005
204	0x3e36b6fe	0.17843243
205	0xbe0c6c05	-0.13713081
206	0xbe5b9b8e	-0.21446058
207	0xbdb8871c	-0.09010145
208	0xbd30ef7b	-0.043197136
209	0xbd7f78d2	-0.062371083
210	0xbe763172	-0.240423
211	0xbf547ca7	-0.83002704
212	0xbd41b49e	-0.04729139
213	0x3ec6ad01	0.38803867
214	0x3df22813	0.1182405
215	0xbdd3f975	-0.103503145
216	0x3e462084	0.19348341
217	0xbedfe094	-0.43726027
218	0x3e840a1d	0.25788966
219	0xbe5e3228	-0.2169882
220	0xbedc66a4	-0.4304706
221	0xbe6095cb	-0.21932141
222	0xbbdca260	-0.006733224
223	0xbee4ea61	-0.44710067
224	0xbddfdf71	-0.1093129
225	0x3e7e91c4	0.24860293
226	0xbdd0ca5c	-0.10194847
227	0xbd8ecee6	-0.069730565
228	0xbd492a7a	-0.049112774
229	0x3e3cb4e1	0.18428375
230	0x3ed652f3	0.4186016
231	0x3d4a3d00	0.04937458
232	0x3d1e4df8	0.038648576
233	0x3f1802cf	0.59379286
234	0x3e2fa2c7	0.17151938
235	0xbde19388	-0.110144675
236	0xbf301eee	-0.68797195
237	0xbf55225c	-0.83255553
238	0x3def4740	0.11683512
239	0x3d64f861	0.055900935
240	0xbf09aa31	-0.53775316
241	0xbf16b706	-0.5887302
242	0x3f03f399	0.51543576
243	0x3db29f3c	0.08721778
244	0x3e70cab0	0.23514819
245	0x3e943fc6	0.28954905
246	0xbb971240	-0.00461033
247	0xbc88a6a0	-0.016681015
248	0x3e9cff1d	0.30663386
249	0xbdd164bb	-0.10224291
250	0x3ecefc0a	0.40426666
251	0xbdc56865	-0.09639052
252	0x3eae2842	0.3401509
253	0x3ee09201	0.43861392
254	0x3f0bfd0f	0.5468301
255	0xbe77a8e7	-0.24185525

context_transformer_0/kq_shared_bottleneck/norm/mul;context_transformer_0/kq_shared_bottleneck/norm/add;context_transformer_0/attention/key/einsum/Einsum;context_transformer_0/attention/key/add;context_transformer_0/attention/value/einsum/Einsum;context_transformer_0/attention/key/add/ReadVariableOp/resource f4 [32]
0	0xbdc735b3	-0.09727039
1	0xbddb0d26	-0.10695867
2	0x3d514388	0.051089793
3	0x3dcc3855	0.09971682
4	0x3ed269d3	0.41096362
5	0xbeb09d01	-0.34494784
6	0x3e33a569	0.17543568
7	0xbeb3d2fa	-0.351219
8	0x3cf0478b	0.02933099
9	0xbeb0be17	-0.34520027
10	0xbeee25ab	-0.46513113
11	0x3e7399ce	0.2378914
12	0xbeaa4e6d	-0.3326296
13	0x3ecb5e90	0.39720583
14	0x3e9ef6ae	0.31047577
15	0xbcfa4b6c	-0.030553542
16	0xbe465a32	-0.19370344
17	0x3ddb141d	0.10697196
18	0xbe5cd65f	-0.21566151
19	0x3d605335	0.054766852
20	0xbe441e18	-0.19152105
21	0x3e6aa44c	0.22914237
22	0xbe640705	-0.22268303
23	0xbe704a69	-0.23465885
24	0x3d95e5a2	0.073191896
25	0xbe8b6836	-0.27227944
26	0xbe2534b8	-0.16133392
27	0x3dcfa604	0.10139087
28	0xbd3c5770	-0.045981824
29	0xbe072470	-0.13197494
30	0xbe4f325b	-0.20234053
31	0x3c3dc53c	0.011582669

context_transformer_0/kq_shared_bottleneck/norm/mul;context_transformer_0/kq_shared_bottleneck/norm/add;context_transformer_0/attention/key/einsum/Einsum;context_transformer_0/attention/key/add;context_transformer_0/attention/value/einsum/Einsum;context_transformer_0/attention/key/add/ReadVariableOp/resource1 f4 [32, 32]
0	0x3ebbfb7a	0.367153
1	0xbdf953e5	-0.12174205
2	0x3e37bd59	0.17943324
3	0xbe19ed34	-0.15031892
4	0xbd6bd31c	-0.057574376
5	0xbd1a53ca	-0.037677564
6	0xbdbe4c26	-0.09291868
7	0xbea06719	-0.31328657
8	0x3e60ec4f	0.21965145
9	0x3d2dd2ed	0.042437483
10	0xbf1fc1a1	-0.6240483
11	0xbe5060ae	-0.2034938
12	0xbeb9f41e	-0.3631906
13	0x3d11b957	0.035577144
14	0x3e112b7b	0.14176743
15	0x3eaea4d8	0.3411014
16	0x3e262fdc	0.16229194
17	0xbe859158	-0.2608745
18	0x3d18c23d	0.037294615
19	0x3e190151	0.14941908
20	0x3b322011	0.0027179758
21	0xbe5beaf5	-0.21476348
22	0xbee9e675	-0.45683637
23	0xbe960f46	-0.29308528
24	0xbe239039	-0.15972985
25	0x3e7484f6	0.23878846
26	0x3c0183fe	0.007905005
27	0x3e675ef7	0.2259482
28	0xbe24a05c	-0.16076797
29	0xbe63cfa7	-0.22247182
30	0x3e14ba19	0.14524116
31	0xbe19d4d1	-0.1502259
32	0x3ecca10e	0.39966625
33	0xbe1b3462	-0.15156701
34	0x3de65a66	0.11247711
35	0xbdddad1e	-0.10824035
36	0xbcce4e15	-0.025183717
37	0xbcf36634	-0.02971182
38	0xbd9b8f1b	-0.075956546
39	0xbe889600	-0.2667694
40	0x3e40400c	0.18774432
41	0xbc1c32a9	-0.009533563
42	0xbefcf613	-0.4940649
43	0xbe5051c6	-0.20343694
44	0xbeb100e8	-0.34571004
45	0x3e0d1659	0.13778056
46	0x3db85b94	0.09001842
47	0x3ec52efb	0.38512406
48	0x3e00c84b	0.12576406
49	0xbe6c8ef2	-0.23101404
50	0x3cc5240f	0.024065046
51	0x3e2ae039	0.16687097
52	0x3c411082	0.011783721
53	0xbe2833b1	-0.16425969
54	0xbef86f55	-0.4852244
55	0xbe7782ed	-0.24171038
56	0xbe3abd44	-0.18236262
57	0x3e22e899	0.15909041
58	0x3c55412a	0.013016025
59	0x3e4733f4	0.19453412
60	0xbdf5bb7d	-0.11998651
61	0xbe441b83	-0.1915112
62	0x3e224097	0.15844952
63	0xbdd692d3	-0.10477223
64	0xbea1ea0c	-0.31623876
65	0x3e9bfb42	0.30465132
66	0x3dff9512	0.12479605
67	0xbda9d528	-0.082926095
68	0xbe03662f	-0.12831949
69	0xbda7a56f	-0.08185851
70	0x3edd1db5	0.43186727
71	0xbd43c2f9	-0.047793362
72	0xbd4ab100	-0.049485207
73	0xbd4caec9	-0.049971376
74	0xbe3c7f35	-0.184079
75	0x3e63aa29	0.2223288
76	0xbda7722d	-0.08176074
77	0xbf32f8ae	-0.69910705
78	0x3e8ca12a	0.27466708
79	0xbd90da08	-0.07072836
80	0x3ca03f4c	0.019561432
81	0x3dc65a33	0.09685173
82	0xbec710fc	-0.38880146
83	0xbeb20520	-0.34769535
84	0x3ed92550	0.4241128
85	0x3d03bf70	0.03216499
86	0x3e71b638	0.23604667
87	0xbe1e7c80	-0.1547718
88	0x3ec7bda0	0.3901186
89	0x3e9d175e	0.3068189
90	0x3ec2c0f5	0.3803784
91	0x3ebabf5e	0.36474127
92	0x3f0d4c0e	0.55194175
93	0xbd9ce226	-0.07660322
94	0xbec2514a	-0.37952644
95	0x3db38682	0.0876589
96	0xbe9229c3	-0.28547487
97	0x3e11fe10	0.14257073
98	0x3deb5be4	0.11492136
99	0x3bbed321	0.0058235084
100	0xbcd7bd1b	-0.02633529
101	0x3dd9f949	0.106432505
102	0x3e9a6d00	0.30161285
103	0x3e7b3fc2	0.2453604
104	0xbe530c51	-0.20610167
105	0x3a12ba6a	0.0005597236
106	0x3e9e4ebf	0.30919454
107	0x3e5f83d1	0.21827628
108	0x3dfac6c2	0.12244941
109	0xbe47309e	-0.1945214
110	0xbcfe6f10	-0.031058818
111	0xbda0a984	-0.078448325
112	0xbdf5809e	-0.119874224
113	0x3e0b05a1	0.13576366
114	0xbe2bf904	-0.1679421
115	0xbe55fddf	-0.20897625
116	0x3e4d3919	0.20041312
117	0x3e928adb	0.28621563
118	0x3ea52346	0.32253474
119	0x3df4cbf2	0.11952962
120	0x3e9dde03	0.30833444
121	0x3cee0473	0.029054856
122	0x3e3a2a59	0.18180217
123	0xbdf2734e	-0.11838399
124	0x3e1b6ebb	0.15178959
125	0x3dd311a9	0.10306103
126	0xbe2dcd91	-0.16972949
127	0x3e31e5be	0.17372796
128	0xbf4ebdf5	-0.807586
129	0xbe29a5cc	-0.16567153
130	0x3e7ea8ca	0.24869075
131	0xbe01aa45	-0.12662609
132	0x3de19070	0.110138774
133	0xbdde19e6	-0.108447835
134	0x3d43f953	0.047845196
135	0x3d5a0f25	0.0532371
136	0x3ed1765f	0.40910622
137	0x3e352b30	0.17692256
138	0x3f2f28a4	0.6842139
139	0xbc81cb28	-0.015843943
140	0xbe3c41c3	-0.18384461
141	0xbe23e3b1	-0.16004826
142	0x3ed1f021	0.41003516
143	0xbd68b95c	-0.056817397
144	0xbd3ebafb	-0.046565037
145	0x3d6da8ff	0.058022495
146	0x3e758aad	0.23978682
147	0x3e8a6404	0.2702943
148	0x3d89945b	0.0671775
149	0xbeab97ac	-0.33514154
150	0x3fa6229c	1.2979312
151	0xbe76ce5e	-0.2410216
152	0xbde2a740	-0.11067057
153	0x3f5ae88b	0.8551108
154	0xbddb9abe	-0.10722874
155	0x3de24f2d	0.11050258
156	0xbb1bb460	-0.0023758635
157	0x3d7f248d	0.062290717
158	0x3dec6e0f	0.115444295
159	0x3c96ea8f	0.018422393
160	0x3f43bc67	0.76459354
161	0x3dc516cf	0.09623491
162	0x3b93b75f	0.0045079435
163	0x3db9cf6f	0.09072768
164	0xbda3e8f6	-0.08003418
165	0x3e2ace3e	0.16680238
166	0xbbb0a2ff	-0.0053905244
167	0xbd554530	-0.052067935
168	0xbe9300a3	-0.28711423
169	0xbe3ecfc2	-0.18633941
170	0xbf419e60	-0.75632286
171	0x3c42df34	0.011894036
172	0x3a61c3fc	0.0008612273
173	0x3dd657d6	0.10465972
174	0xbea79e89	-0.3273814
175	0x3eb86afe	0.3601913
176	0x3d8436d6	0.064557716
177	0xbda9662c	-0.08271441
178	0xbe640014	-0.22265655
179	0xbe67a0ff	-0.22620009
180	0xbd534d42	-0.05158735
181	0x3e7a0ca7	0.24418889
182	0xbfa42cca	-1.2826169
183	0x3e07ae6b	0.13250129
184	0x3e07f53d	0.13277145
185	0xbf40d1cc	-0.75320125
186	0x3e373023	0.17889456
187	0xbdfaba88	-0.12242609
188	0xbe0814d4	-0.13289195
189	0xbd3fa7ce	-0.04679089
190	0xbd837c6d	-0.06420217
191	0xbc98df53	-0.018661177
192	0xbec53b28	-0.38521695
193	0xbcdc336a	-0.026879985
194	0x3e5d2671	0.21596695
195	0x3da40b5a	0.08009978
196	0x3e561131	0.20904996
197	0x3e9e137b	0.30874237
198	0x3d7c08ac	0.061531708
199	0x3ec49774	0.383968
200	0xbdb0a905	-0.08625988
201	0x3c90197a	0.017590273
202	0x3e0ca5c0	0.13735104
203	0x3dc24c66	0.09487228
204	0x3e1178aa	0.14206186
205	0xbec2a45a	-0.38016015
206	0xbd86c030	-0.065796256
207	0x3e413c36	0.18870625
208	0xbdf987e5	-0.12184123
209	0x3eb610ca	0.35559684
210	0xbb383397	-0.0028106922
211	0xbd9f1d61	-0.077692755
212	0xbdb4f89b	-0.0883648
213	0x3dcb976c	0.09940991
214	0x3e9e4a6f	0.30916163
215	0x3e54bf06	0.20775995
216	0x3e7ed569	0.24886097
217	0xbe05952f	-0.1304519
218	0x3d3fadc9	0.046796594
219	0xbf118c59	-0.5685478
220	0xbdaac5e0	-0.08338523
221	0x3e8b30b5	0.27185598
222	0xbe08353f	-0.13301562
223	0xbc6372b5	-0.013882329
224	0x3e9abccb	0.30222163
225	0x3e392751	0.18081404
226	0xbf69be6d	-0.9130619
227	0x3e31e674	0.17373067
228	0xbe9764e3	-0.29569158
229	0xbf2c7bdc	-0.67376494
230	0xbec65bc6	-0.38741893
231	0xbee89814	-0.45428526
232	0xbe02496a	-0.12723318
233	0xbda0714a	-0.07834108
234	0x3e8abbc6	0.27096385
235	0xbdeb8266	-0.11499481
236	0x3ed84e70	0.42247343
237	0x3ee32c41	0.443697
238	0xbe0dcc3c	-0.1384744
239	0xbf6bd96f	-0.9212865
240	0x3c5fb853	0.013654786
241	0xbe37987d	-0.17929263
242	0x3e6b85cb	0.23000257
243	0xbb896bff	-0.0041937823
244	0xbe81cbdc	-0.25350845
245	0xbe94d3e9	-0.29067925
246	0xbec14207	-0.37745687
247	0x3e876918	0.26447368
248	0xbebdb528	-0.37052274
249	0xbf00ab58	-0.5026145
250	0xbe9cd0dd	-0.306281
251	0x3f258d78	0.6466899
252	0x3eaf85da	0.34281808
253	0xbe129e11	-0.1431811
254	0xbb891dd3	-0.0041844635
255	0xbe29e048	-0.16589463

context_transformer_0/kq_shared_bottleneck/norm/mul;context_transformer_0/kq_shared_bottleneck/norm/add;context_transformer_0/attention/query/einsum/Einsum;context_transformer_0/attention/query/add;context_transformer_0/attention/value/einsum/Einsum;context_transformer_0/attention/query/add/ReadVariableOp/resource;context_transformer_0/attention/Mul;context_transformer_0/attention/Mul/y f4 [32]
0	0xbe3ef990	-0.18649888
1	0xbe20eb8e	-0.15714857
2	0xbc25c8d2	-0.01011868
3	0x3ddf54eb	0.10904869
4	0xbe841a48	-0.258013
5	0x3e3c6a9f	0.18400048
6	0x3dd26ca6	0.10274629
7	0x3e08f6db	0.13375418
8	0x3dfa8b29	0.12233574
9	0x3e877dfd	0.2646331
10	0x3ead7d05	0.33884445
11	0xbda5a7fe	-0.080886826
12	0x3e346f45	0.17620571
13	0xbe94a16e	-0.2902941
14	0xbe6d9d1f	-0.23204468
15	0x3db53dd8	0.088496864
16	0x3d4df65c	0.050283775
17	0xbdd1009c	-0.10205194
18	0x3d9a1e56	0.07525317
19	0xbea207fa	-0.3164671
20	0x3e391fe6	0.18078575
21	0xbc10d8fc	-0.008840796
22	0x3e050bc6	0.12992772
23	0x3dbdf67e	0.0927553
24	0xbe489fa1	-0.19592144
25	0x3dfd0f31	0.12356413
26	0x3d3cc35e	0.046084754
27	0xbe28abf3	-0.16471843
28	0x3b8cac42	0.0042929957
29	0x3e46018d	0.19336529
30	0x3d2b6cac	0.041851684
31	0xbe50f77b	-0.20406906

context_transformer_0/kq_shared_bottleneck/norm/mul;context_transformer_0/kq_shared_bottleneck/norm/add;context_transformer_0/attention/query/einsum/Einsum;context_transformer_0/attention/query/add;context_transformer_0/attention/value/einsum/Einsum;context_transformer_0/attention/query/add/ReadVariableOp/resource;context_transformer_0/attention/Mul;context_transformer_0/attention/Mul/y1 f4 [32, 32]
0	0x3e959b2f	0.29219958
1	0xbb89358d	-0.004187292
2	0x3d7a912e	0.06117361
3	0x3d5d5126	0.054032467
4	0xbd9e2dec	-0.07723603
5	0xbc73d18b	-0.014881502
6	0x3d8c7f9e	0.068602785
7	0xbd2de237	-0.042452063
8	0xbe6867e9	-0.22695889
9	0xbd6a82a8	-0.05725351
10	0xbd6c6eef	-0.057722982
11	0x3de74c55	0.11293856
12	0x3d98c772	0.07459916
13	0x3dff3e54	0.1246306
14	0xbe184182	-0.14868739
15	0x3c9f6ce6	0.019461107
16	0xbda58391	-0.08081735
17	0xbd7fd3eb	-0.06245796
18	0x3c6ad2be	0.014332471
19	0xbc4f231f	-0.012642651
20	0x3dc4d5c2	0.096110836
21	0x3e018ee9	0.12652172
22	0xbdcd73d2	-0.100318566
23	0x3d8efca4	0.06981781
24	0x3d113390	0.035449564
25	0xbc9f3481	-0.019434216
26	0xbcedb1df	-0.02901548
27	0x3d84b406	0.06479649
28	0xbd6eabc8	-0.058269292
29	0xbd5e91dd	-0.054338325
30	0x39bff7f3	0.00036615095
31	0x3d8a6b0f	0.06758701
32	0x3e9e44d4	0.30911887
33	0x3b2a38bc	0.0025973758
34	0x3d8b8434	0.06812325
35	0x3d1c2eb5	0.03813048
36	0xbd9f114c	-0.07766971
37	0xbc6f0c11	-0.014590279
38	0x3d218f8e	0.039443545
39	0xbd3a379d	-0.045463193
40	0xbe5b8580	-0.21437645
41	0xbd385a2c	-0.04500787
42	0xbd04a029	-0.032379303
43	0x3dbbde95	0.091733135
44	0x3da397d5	0.07987944
45	0x3dd92b2a	0.10603936
46	0xbe1917a7	-0.14950429
47	0x3c892890	0.016742975
48	0xbd948e9e	-0.072537646
49	0xbd5c575b	-0.053794246
50	0x3b8b70e7	0.0042554024
51	0x3ca53c38	0.020170316
52	0x3da64135	0.08117906
53	0x3dde8e8f	0.10867035
54	0xbdb6bf19	-0.08923168
55	0x3d66aa7b	0.056314927
56	0x3c8aba0c	0.016934417
57	0x3b85b22a	0.0040800767
58	0xbd0b17f2	-0.033958383
59	0x3d646e27	0.055769112
60	0xbda28644	-0.079357654
61	0xbd4dd8b5	-0.050255496
62	0x3c161692	0.009160655
63	0x3d2eb056	0.042648636
64	0xbe795bdb	-0.24351446
65	0x3e26ad90	0.16277146
66	0x3d33c11c	0.043885335
67	0x3d51ab9b	0.051189046
68	0xbc809c07	-0.0156994
69	0x3d0c4ede	0.0342549
70	0x3e27ed3d	0.16399093
71	0xbdccb71b	-0.09995862
72	0x3e4deba7	0.20109425
73	0xbd6cadcd	-0.057782937
74	0xbdc3ee18	-0.09566897
75	0x3da58ac2	0.080831066
76	0xbdd39bd8	-0.10332459
77	0xbd93da1a	-0.07219334
78	0x3e1d7f16	0.1538051
79	0x3d696726	0.056983136
80	0x3b9b0ff3	0.004732126
81	0xbdcbffe1	-0.099609144
82	0xbe72a6ce	-0.23696443
83	0xbe78808b	-0.24267785
84	0x3e3d9ef0	0.18517661
85	0xbdabc01f	-0.083862536
86	0xbd0e5221	-0.034746293
87	0xbdc75f20	-0.097349405
88	0x3da03f82	0.07824613
89	0xbdb9463f	-0.090466015
90	0x3e3daff9	0.1852416
91	0x3e0c3baf	0.13694642
92	0x3da8a520	0.0823462
93	0xbd4231a6	-0.04741063
94	0xbdb74c2e	-0.08950077
95	0x3db7bf2b	0.08972009
96	0xbe869537	-0.26285717
97	0x3cb7f20b	0.022454282
98	0x3cefb931	0.02926311
99	0xbd288e1e	-0.04115116
100	0x3d26f365	0.040759463
101	0x3d632647	0.055456426
102	0x3ce6d5d6	0.028178137
103	0xbc8f5ab9	-0.017499315
104	0x3e6aae47	0.22918044
105	0x3d0e94c3	0.03480984
106	0xbd26ba8f	-0.04070526
107	0xbd43e83e	-0.047828905
108	0xbdf13acc	-0.11778793
109	0xbddc707f	-0.107636444
110	0x3e18e04c	0.14929312
111	0x3de0dcb9	0.109795995
112	0x3d5476de	0.051871173
113	0xbb86044f	-0.004089869
114	0xbd9277f5	-0.07151786
115	0xbd69dd9a	-0.0570961
116	0x39c78bd8	0.0003806043
117	0xbdc7dc9c	-0.09758875
118	0x3cb23718	0.021754786
119	0xbdce4d2a	-0.100733116
120	0x3c57be3d	0.013167915
121	0x3cd32b1a	0.025777388
122	0x3d6d7295	0.057970602
123	0xbc7247d0	-0.014787629
124	0xbc245504	-0.010030035
125	0x3a8bd61b	0.0010668667
126	0x3b409c26	0.0029389947
127	0xbc9c1f7d	-0.019057984
128	0xbf29af42	-0.6628305
129	0xbd995a4b	-0.07487925
130	0xbdb5553e	-0.08854149
131	0x3dc5670b	0.096387945
132	0xbdbe7e50	-0.09301436
133	0xbd906294	-0.07050052
134	0x3c1b4158	0.009476028
135	0xbd1f3b9f	-0.03887522
136	0x3ead6e7e	0.3387336
137	0xbd8452f1	-0.06461132
138	0x3be43c88	0.0069652237
139	0x3e0bca7d	0.13651462
140	0x3df499cf	0.11943399
141	0x3e3551da	0.17707005
142	0x3e2a48d0	0.16629338
143	0xbe2e4abc	-0.17020696
144	0xbdffa3c3	-0.12482407
145	0x3b92094b	0.004456674
146	0x3dc1383c	0.09434554
147	0xbcb678c1	-0.022274377
148	0x3b932b69	0.004491259
149	0x3cbe8f91	0.023261817
150	0x3c760968	0.015016891
151	0x3d6e8209	0.05822948
152	0xbc5ce86c	-0.013483148
153	0xbdeb3bdf	-0.11486029
154	0xbd5415f3	-0.051778745
155	0x3e2bf90e	0.16794226
156	0xbe054982	-0.13016322
157	0xbcd81cec	-0.026380979
158	0x3cd7e0ea	0.026352365
159	0xbcdb8036	-0.026794534
160	0x3f2534c3	0.64533633
161	0x3d7fe867	0.062477496
162	0x3e0b5206	0.13605508
163	0xbd701f7d	-0.05862378
164	0x3db34675	0.08753673
165	0x3dbcad90	0.09212792
166	0x3b163eba	0.0022925572
167	0x3c3bf793	0.0114726005
168	0xbea6f0e5	-0.32605663
169	0x3ce6b8e7	0.02816434
170	0xbd1d11e8	-0.038347155
171	0xbdbbbc83	-0.09166815
172	0xbdddba20	-0.10826516
173	0xbe12ea4e	-0.14347193
174	0xbe26e64c	-0.16298789
175	0x3e8015d7	0.25016662
176	0x3db37e8d	0.08764372
177	0xbc5bd9c4	-0.013418619
178	0xbdb66e85	-0.08907799
179	0x3c425812	0.011861818
180	0x3d217cbc	0.039425597
181	0xbc03696f	-0.008020743
182	0xbda5f55b	-0.081034385
183	0xbd064d19	-0.03278837
184	0x3c0bfa55	0.0085435705
185	0x3dabb305	0.08383755
186	0x3cd925e8	0.026507333
187	0xbe29f8b1	-0.16598774
188	0x3c9b2bcd	0.018941784
189	0x3c0e1598	0.008672141
190	0xbca92fbb	-0.020652642
191	0x3d560d30	0.05225867
192	0xbe6cc5dc	-0.23122352
193	0xbce369cc	-0.027760409
194	0x3cbefdfd	0.02331447
195	0x3d0d2620	0.034460187
196	0x3dd176eb	0.1022776
197	0x3dbd0969	0.092303105
198	0xbd214aa3	-0.03937782
199	0x3d987f3a	0.074461415
200	0x3e96ec4c	0.29477155
201	0x3b0bbad9	0.0021321087
202	0xbcf16080	-0.02946496
203	0xbd2e79ab	-0.0425965
204	0xbda98389	-0.082770415
205	0xbd8d4d12	-0.068994656
206	0x3db0e589	0.0863753
207	0x3e211a08	0.15732586
208	0x3b828b0d	0.0039838613
209	0x3da8fcce	0.08251344
210	0xbc2c595a	-0.01051935
211	0xbccca758	-0.02498214
212	0xbbe00f61	-0.006837771
213	0xbd968454	-0.07349458
214	0xbd05983e	-0.032615893
215	0xbcf7a07a	-0.030227888
216	0x3c0b442d	0.008500141
217	0xbda61a76	-0.08110516
218	0x3c3df33a	0.011593634
219	0xbe51b2cf	-0.20478366
220	0xbdf5f1d3	-0.12009015
221	0x3d8e0657	0.06934803
222	0xbcf768de	-0.030201372
223	0xbcf5a6cc	-0.029986762
224	0x3e8313d2	0.2560106
225	0x3dc4b43c	0.096046895
226	0xbe6442cb	-0.22291104
227	0xbdb01974	-0.08598605
228	0xbc49e553	-0.012322742
229	0xbe1a8e1c	-0.15093273
230	0xbd2cadd5	-0.042157967
231	0xbc385b59	-0.011252248
232	0xbec479db	-0.38374218
233	0x3c9e32f1	0.0193114
234	0x3e6a2a3b	0.22867672
235	0xbdd4c2b0	-0.10388696
236	0x3daad68e	0.08341704
237	0xbcc28e2a	-0.02374943
238	0xbd9e882b	-0.07740816
239	0xbec56eef	-0.38561198
240	0x3dc446d0	0.09583819
241	0x3c9626c2	0.018329028
242	0x3d2c4f38	0.042067736
243	0x3d78fe12	0.060789175
244	0xbe178694	-0.14797431
245	0xbcdc8f68	-0.02692385
246	0x3e5a227e	0.2130222
247	0x3d8c63f1	0.06855
248	0xbcfa577a	-0.03055929
249	0x3d849fb4	0.064757735
250	0x3c02d720	0.00798586
251	0x3e161d5e	0.1465964
252	0x3edb3957	0.42817184
253	0x3d5e450e	0.054265074
254	0x3aecfaa1	0.0018080064
255	0xbc31b6c3	-0.010846796

context_transformer_0/ffn_layer_0/intermediate_dense/einsum/Einsum;context_transformer_0/ffn_layer_0/intermediate_dense/Relu;context_transformer_0/ffn_layer_0/intermediate_dense/add f4 [32]
0	0xbf2a0d5d	-0.6642664
1	0xbea7a4f4	-0.32743037
2	0x3d7a87f5	0.061164815
3	0xbe47c285	-0.19507797
4	0xbef06652	-0.46953064
5	0xbe1cf581	-0.15328027
6	0xbeacaa26	-0.33723563
7	0xbe5397c7	-0.20663367
8	0xbdd9b470	-0.10630119
9	0xbe2a5bc7	-0.16636573
10	0xbe26508b	-0.16241662
11	0xbea4d4dd	-0.32193652
12	0xbe021bd4	-0.12705928
13	0xbc7318fc	-0.0148375
14	0xbee382f7	-0.44435856
15	0xbecdbaab	-0.4018148
16	0xbd960f37	-0.07327121
17	0xbd9012eb	-0.07034858
18	0xbe4a973a	-0.19784251
19	0xbee90a72	-0.45515782
20	0xbe5f36fc	-0.21798319
21	0xbe82838b	-0.25490984
22	0xbe198916	-0.149937
23	0xbe1024b4	-0.14076501
24	0xbe90af10	-0.28258562
25	0xbe4e54d9	-0.20149554
26	0xbec89151	-0.39173368
27	0xbec71601	-0.38883975
28	0xbeb4bcb6	-0.35300225
29	0xbed72a8c	-0.42024648
30	0xbe58ba69	-0.2116486
31	0xbe147c4a	-0.14500538

context_transformer_0/attention/norm/mul;context_transformer_0/attention/norm/add;context_transformer_0/ffn_layer_0/intermediate_dense/einsum/Einsum;context_transformer_0/ffn_layer_0/intermediate_dense/Relu;context_transformer_0/ffn_layer_0/intermediate_dense/add f4 [32, 32]
0	0x3ec538f0	0.38520002
1	0xbeb906c7	-0.36137983
2	0x3e31100f	0.17291282
3	0xbcdc14bf	-0.026865361
4	0xbda04474	-0.078255564
5	0x3e8eeb17	0.27913734
6	0x3d618fa1	0.055068616
7	0x3e8a6d9d	0.27036753
8	0x3e3e8c3a	0.1860818
9	0x3d02cc39	0.031933043
10	0xbe849dba	-0.25901586
11	0x3cd502c9	0.026002305
12	0x3e3d96c1	0.1851454
13	0xbe4529f3	-0.19254284
14	0xbdfa000b	-0.122070394
15	0x3e4915f1	0.19637276
16	0xbe88ed8c	-0.26743734
17	0x3e740aa3	0.23832183
18	0xbe8fc045	-0.28076378
19	0x3e753c44	0.23948771
20	0x3c70fda7	0.014708913
21	0x3cbd7c9e	0.023130711
22	0x3eb97673	0.36223182
23	0xbdb8f7e9	-0.0903166
24	0xbe564f94	-0.20928794
25	0x3e616bcb	0.22013776
26	0x3db39a94	0.08769718
27	0xbe0b8bbd	-0.13627525
28	0x3e4e0e9a	0.20122758
29	0x3e81fc8d	0.25387993
30	0x3e054ade	0.13016841
31	0xbebcf7e1	-0.36907867
32	0xbd6dc851	-0.058052365
33	0x3de7a309	0.11310393
34	0xbe1e4a73	-0.15458088
35	0xbe1442a8	-0.14478552
36	0x3e45a19d	0.19299932
37	0x3decf8b7	0.11570876
38	0xbe76add4	-0.24089748
39	0x3e6b7325	0.22993143
40	0xbe4f87fe	-0.2026672
41	0xbd9f8172	-0.077883616
42	0x3da60529	0.08106453
43	0x3f21cc88	0.63202715
44	0x3e9852ed	0.29750767
45	0xbe15c18d	-0.14624615
46	0x3ed4763b	0.41496453
47	0x3e50c0d9	0.20386066
48	0x3de8b9e0	0.11363578
49	0xbdd201ee	-0.10254274
50	0x3cffc93c	0.031223886
51	0xbe22231c	-0.15833706
52	0x3d09b67c	0.033621296
53	0xbe950ced	-0.29111424
54	0xbed7233f	-0.42019078
55	0xbe9de6f2	-0.3084026
56	0xbe0acc10	-0.13554406
57	0xbc9719b8	-0.01844488
58	0xbcafe97d	-0.02147364
59	0xbd3d6b9c	-0.046245202
60	0x3e6497f8	0.22323596
61	0xbdffb0f0	-0.1248492
62	0x3dcd5e52	0.10027756
63	0x3e818796	0.25298756
64	0x3e2e0a1d	0.16996045
65	0x3e149eb0	0.1451366
66	0x3da74110	0.081667066
67	0x3d8cb3f8	0.06870264
68	0x3d2d2eec	0.042281076
69	0x3d6a336e	0.057177953
70	0xbdace991	-0.08442987
71	0xbd9437a7	-0.07237177
72	0x3d9562cf	0.07294237
73	0xbcf4b0d1	-0.029869469
74	0xbe844344	-0.2583257
75	0x3edf696d	0.4363512
76	0xbd9023fc	-0.070381135
77	0xbb2d02d8	-0.00263994
78	0x3e91d3af	0.28481814
79	0x3e31f689	0.17379202
80	0xbdd5990c	-0.10429582
81	0x3d972830	0.07380712
82	0xbaa38348	-0.0012475038
83	0xbe8a8248	-0.27052522
84	0xbce96d74	-0.028494574
85	0xbe3c789b	-0.18405382
86	0xbdb3825c	-0.087650985
87	0xbd48656b	-0.048924845
88	0x3ded04f3	0.115732096
89	0xbe95e4c4	-0.29276097
90	0xbe7aa125	-0.24475534
91	0xbeb250b5	-0.348272
92	0x3c18164f	0.0092826625
93	0xbe82cdf4	-0.25547755
94	0xbdb6f4a7	-0.089333825
95	0x3d99dd65	0.07512931
96	0x3d85f99d	0.065417506
97	0x3d8939d6	0.067004845
98	0x3d8ff582	0.07029249
99	0xbd15620f	-0.03647047
100	0x3d90da41	0.07072879
101	0x3eddaf6b	0.43297896
102	0xbecb96ed	-0.39763585
103	0xbe59aad3	-0.2125657
104	0xbe70b1d7	-0.2350534
105	0x3e1b6caf	0.15178178
106	0x3eb7bb8d	0.35885277
107	0x3e652814	0.2237857
108	0x3e406a2e	0.18790504
109	0xbee240a2	-0.44189936
110	0x3e5a8ed6	0.2134355
111	0x3e3415a5	0.17586382
112	0x3ca213a9	0.019784765
113	0xbdd69643	-0.10477879
114	0xbbc204d0	-0.005920984
115	0x3e8b5404	0.27212536
116	0xbd826223	-0.06366374
117	0xbedd346c	-0.43204057
118	0xbe4a77d0	-0.19772267
119	0x3ea88edc	0.32921493
120	0xbed8bebe	-0.42333025
121	0x3da54ff3	0.0807189
122	0xbda8efce	-0.08248864
123	0xbd31dcd5	-0.043423492
124	0xbd0aca7a	-0.033884503
125	0xbeb98a61	-0.36238387
126	0xbc841b85	-0.016126404
127	0xbcc86d93	-0.024466312
128	0xbc346882	-0.011011245
129	0xbc89001e	-0.016723689
130	0xbecee3bb	-0.4040812
131	0x3de5c2df	0.11218809
132	0x3ee9d643	0.4567128
133	0x3c1c7537	0.009549431
134	0x3e8856a9	0.26628616
135	0xbe981c17	-0.2970893
136	0x3dab73e5	0.083717145
137	0x3e8bf621	0.2733622
138	0xbdf7fee6	-0.12109165
139	0x3f1d7edb	0.6152169
140	0x3d59cea9	0.053175602
141	0xbc9ba318	-0.018998668
142	0xbe4c6a80	-0.19962502
143	0xbea5054c	-0.32230604
144	0x3d4a2574	0.049352124
145	0xbdd51c4e	-0.10405789
146	0xbddbb03a	-0.10726972
147	0xbd137515	-0.03600033
148	0x3e1adc12	0.15123013
149	0x3e8f25e3	0.27958593
150	0x3d0c2a65	0.034220118
151	0xbf1ce41f	-0.61285585
152	0x3e35aeee	0.17742512
153	0xbd872183	-0.06598189
154	0x3e53185c	0.20614761
155	0xbbb19283	-0.005419077
156	0x3dcfa351	0.10138572
157	0xbe67574b	-0.22591893
158	0x3ce7a56d	0.028277123
159	0xbe6e298b	-0.23258035
160	0xbeb3f531	-0.35148004
161	0x3e2a38db	0.16623251
162	0xbd4dc770	-0.050239027
163	0xbeb0d8b0	-0.3454032
164	0xbe433276	-0.19062218
165	0x3bb42ae1	0.0054982756
166	0x3e8a39e7	0.269973
167	0xb9d1a6ff	-0.00039988008
168	0x3d841031	0.06448401
169	0xbd069f97	-0.03286704
170	0xbe44d2c3	-0.19221024
171	0x3ec6aa0e	0.38801616
172	0xbd4f3849	-0.050590787
173	0x3efe5eaf	0.49681613
174	0xbe24f03b	-0.16107266
175	0x3e32ca6e	0.17460033
176	0xbde92173	-0.11383333
177	0xbe1a6d42	-0.15080741
178	0x3e050c6c	0.1299302
179	0x3d43c090	0.047791064
180	0x3e048e9c	0.12945026
181	0xbd9d881e	-0.07691978
182	0x3e940bcd	0.28915253
183	0x3b3ba287	0.002863081
184	0x3c4a8c96	0.01236262
185	0xbd870d0f	-0.065942876
186	0xbd46b267	-0.04850998
187	0xbd015526	-0.031575345
188	0xbdec0ebb	-0.11526247
189	0xbe2e57a9	-0.17025627
190	0xbe1d4752	-0.15359238
191	0xbe01e2e6	-0.12684211
192	0xbe0f012a	-0.13965288
193	0x3e1045bb	0.140891
194	0xbe3db6c5	-0.18526752
195	0xbd0132c2	-0.031542547
196	0x3d32aebc	0.04362367
197	0xbd58db7d	-0.052943695
198	0x3ba438ee	0.0050116694
199	0x3e72ad4b	0.23698919
200	0x3e80dbf9	0.25167826
201	0xbdf087b0	-0.1174463
202	0x3d6b5af4	0.057459787
203	0x3e3562c8	0.17713463
204	0xbe6d8e65	-0.2319885
205	0x3ebe23f5	0.37136808
206	0xbcf17554	-0.029474892
207	0x3e41372d	0.18868704
208	0xbd470ddf	-0.048597213
209	0xbe7982b6	-0.24366269
210	0x3e510b92	0.2041457
211	0x3dbb63e2	0.091499105
212	0x3df03cb1	0.11730326
213	0xbe23c724	-0.15993935
214	0x3e80a079	0.2512243
215	0x3e32e59e	0.17470405
216	0xbe48c066	-0.19604644
217	0x3c6350ea	0.013874272
218	0x3e382fd5	0.17986996
219	0x3de3c2c4	0.11121133
220	0x3e7ea2a7	0.24866734
221	0x3d5084f9	0.050908063
222	0x3e005940	0.12534046
223	0xbdf997a5	-0.12187127
224	0x3e94c0db	0.29053387
225	0xbe3a5900	-0.18198013
226	0x3ea6f9ed	0.32612553
227	0x3c4f7912	0.012663143
228	0xbd49ad3b	-0.04923747
229	0x3d678096	0.056519113
230	0xbe7a5e83	-0.24450116
231	0xbeae1d96	-0.34006947
232	0x3d990ad1	0.07472766
233	0xbdee13cd	-0.116248704
234	0x3d9e0c40	0.0771718
235	0x3dbc969b	0.09208413
236	0x3e529303	0.20563893
237	0xbe22bfc3	-0.15893464
238	0x3ddc9cfd	0.10772131
239	0x3d8142e3	0.06311586
240	0x3eb69245	0.3565847
241	0x3e2dbffa	0.16967764
242	0x3eb03199	0.3441284
243	0xbe39a9a2	-0.18131116
244	0xbe82f6e8	-0.25579
245	0x3d5e201e	0.054229848
246	0x3e3b23bf	0.18275355
247	0x3db4d99c	0.08830568
248	0xbe695f66	-0.22790298
249	0x3c3db0c3	0.011577788
250	0xbe7761fc	-0.24158472
251	0xbeb2510d	-0.34827462
252	0xbdeafbca	-0.11473806
253	0xbeac2b6a	-0.33626872
254	0xbd755f67	-0.059905436
255	0x3f0169b7	0.50551933

context_transformer_0/ffn_layer_1/intermediate_dense/einsum/Einsum;context_transformer_0/ffn_layer_1/intermediate_dense/Relu;context_transformer_0/ffn_layer_1/intermediate_dense/add f4 [32]
0	0x3e3cceb6	0.18438229
1	0xbe565a56	-0.20932898
2	0xbe09d318	-0.13459432
3	0xbd6fd7f2	-0.05855555
4	0xbe3ee21e	-0.18640944
5	0xbe0b6f6f	-0.13616727
6	0xbe56f28f	-0.20990966
7	0xbed61110	-0.41809893
8	0xbe7eb801	-0.2487488
9	0xbe512c0d	-0.2042696
10	0x3d8dd629	0.069256134
11	0x3cfbdc09	0.03074457
12	0xbe3bc095	-0.18335183
13	0xbe8a1f53	-0.26977023
14	0xbe399106	-0.18121728
15	0xbbba5f80	-0.005687654
16	0xbe2f3b9f	-0.17112587
17	0xbe0459d2	-0.12924889
18	0xbea8dc05	-0.32980362
19	0xbe8df4a4	-0.27725708
20	0xbe1790a7	-0.14801274
21	0xbe89a05d	-0.2688016
22	0xbe1e3d8b	-0.15453164
23	0xbda7355f	-0.081644766
24	0xbe4a3d0d	-0.19749852
25	0xbe8412aa	-0.2579549
26	0xbde623d7	-0.11237305
27	0xbe026fe6	-0.12737998
28	0xbe830677	-0.2559087
29	0xbe2de397	-0.1698135
30	0x3da181ac	0.07886061
31	0xbdb36b3e	-0.08760689

context_transformer_0/ffn_layer_0/norm/mul;context_transformer_0/ffn_layer_0/norm/add;context_transformer_0/ffn_layer_1/intermediate_dense/einsum/Einsum;context_transformer_0/ffn_layer_1/intermediate_dense/Relu;context_transformer_0/ffn_layer_1/intermediate_dense/add f4 [32, 32]
0	0x3d1792c0	0.037005186
1	0x3e08e845	0.13369854
2	0xbe91b7be	-0.28460497
3	0x3de5edc9	0.112269945
4	0xbc8589c8	-0.01630105
5	0x3e07dd5c	0.13268036
6	0xbdd303f9	-0.10303492
7	0xbd77abc3	-0.06046654
8	0x3dbe0847	0.092789225
9	0xbd08de10	-0.0334149
10	0x3de90150	0.113772035
11	0x3e38567f	0.18001746
12	0x3eb4a5a6	0.3528263
13	0xbc4eade9	-0.012614706
14	0x3de80291	0.113286145
15	0x3e8c2e8a	0.27379256
16	0x3e1d4267	0.15357362
17	0xbde487aa	-0.11158688
18	0xbb0d48df	-0.0021558327
19	0xbdb9e6c9	-0.09077222
20	0xbe45a592	-0.19301441
21	0x3e0d461a	0.13796273
22	0xbde87d29	-0.113519974
23	0x3e85697f	0.2605705
24	0xbdbbd83d	-0.091721036
25	0x3ba6e659	0.0050933775
26	0xbe7a83cf	-0.24464343
27	0xbe66c651	-0.22536589
28	0xbead8bd9	-0.33895758
29	0xbe9dc897	-0.308171
30	0x3cab60ba	0.020920146
31	0xbe185251	-0.14875151
32	0xbe1c85f1	-0.1528547
33	0x3d4b5688	0.04964307
34	0x3e3d7e7b	0.1850528
35	0xbddf7e5a	-0.109127715
36	0x3e12b9de	0.14328715
37	0x3d8a38c2	0.06749107
38	0x3e8ec06f	0.2788119
39	0xbe2c65c3	-0.16835694
40	0x3d05095a	0.03247962
41	0x3e2e9991	0.17050768
42	0xbeabefc6	-0.3358137
43	0x3e3f0bd3	0.18656854
44	0x3b97f571	0.004637413
45	0xbe8be2e0	-0.2732153
46	0xbe34280b	-0.175934
47	0x3e6b9650	0.23006558
48	0xbd350498	-0.044193834
49	0x3e868362	0.26272112
50	0xbe2a89da	-0.16654149
51	0x3df574d7	0.11985176
52	0x3e1683bd	0.14698692
53	0xbe42d331	-0.19025876
54	0x3eadc540	0.33939552
55	0x3e7e8826	0.24856624
56	0x3eaaf6e7	0.33391497
57	0xbe3c8586	-0.1841031
58	0xbda93b83	-0.08263304
59	0xbe1b57b3	-0.15170173
60	0x3de7feb1	0.113278754
61	0xbe84048b	-0.25784716
62	0x3e560d0f	0.20903419
63	0xbdeb7cc0	-0.114984035
64	0x3b1ac994	0.0023618685
65	0xbc22df6b	-0.009940962
66	0xbcce755f	-0.025202451
67	0xbccda496	-0.025102895
68	0x3ce17807	0.027523054
69	0x3c7909b8	0.015200071
70	0x3c0f326c	0.008740049
71	0x3a4942d5	0.00076775
72	0x3d06e723	0.032935273
73	0x3c103982	0.008802773
74	0xbd1e6e69	-0.038679514
75	0x3c2326ac	0.009957951
76	0x3bf29fa4	0.0074042846
77	0xbbf39fc4	-0.007434817
78	0x3c455617	0.012044451
79	0x3bdce396	0.0067409975
80	0xbaf64440	-0.0018788651
81	0x3c99be7f	0.018767593
82	0xbc6b8b3c	-0.014376458
83	0xbc1cb080	-0.009563565
84	0x3c41c708	0.011827238
85	0x3d0fa760	0.03507173
86	0xbd23f256	-0.04002603
87	0xbc915b52	-0.01774374
88	0xbc9b0dad	-0.01892742
89	0xbbe92194	-0.0071145985
90	0xbc5eff11	-0.013610617
91	0x3a8c575b	0.0010707186
92	0xbccd4477	-0.02505706
93	0xbc1141a7	-0.00886575
94	0x3c59e211	0.013298527
95	0xbccf229f	-0.025285063
96	0x3ceb4a61	0.02872199
97	0xbe714d7e	-0.23564717
98	0x3e00645c	0.12538284
99	0xbe5e20d4	-0.2169221
100	0x3e4823e1	0.19544937
101	0x3a26d5d8	0.00063642627
102	0x3c95010a	0.018188972
103	0xbdbd1412	-0.09232344
104	0x3e9920e2	0.299079
105	0x3e314562	0.17311624
106	0x3e3709f1	0.17874886
107	0xbdc0a072	-0.094056025
108	0x3e999981	0.29999927
109	0x3dc02e24	0.093838006
110	0x3b89bad3	0.0042031794
111	0x3c0fffd3	0.008789021
112	0x3e8eb523	0.2787257
113	0xbc14255c	-0.00904211
114	0x3e0687aa	0.13137689
115	0xbcccb30f	-0.024987726
116	0xbe891612	-0.2677465
117	0x3d88746d	0.066628315
118	0xbdbad062	-0.09121777
119	0x3e60688d	0.21914883
120	0xbf08e762	-0.5347806
121	0x3e82fbb1	0.2558265
122	0x3d7c733c	0.061633334
123	0xbe403b01	-0.18772508
124	0xbe9c76fd	-0.3055953
125	0xbe874033	-0.26416168
126	0x3d129aba	0.03579209
127	0x3e9676a0	0.2938738
128	0x3dfc34c6	0.12314753
129	0xbe4eb97d	-0.20187946
130	0x3dbc044f	0.09180509
131	0xbe208174	-0.15674382
132	0x3e9f3555	0.31095377
133	0x3e01cb08	0.12675107
134	0x3d358bc4	0.044322744
135	0xbe138771	-0.14407136
136	0x3dd5107d	0.104035355
137	0xbdb06ddb	-0.08614703
138	0xbca78eb7	-0.020453794
139	0x3da9c624	0.082897455
140	0xbdeaef42	-0.11471416
141	0x3cabf895	0.020992557
142	0xbe62589d	-0.22104116
143	0xbd552c61	-0.052044276
144	0x3e35e935	0.17764743
145	0xbd18a8c3	-0.03727032
146	0x3db1fb4c	0.08690509
147	0xbe9ab635	-0.30217138
148	0x3df6188e	0.12016402
149	0x3e13dd92	0.14439991
150	0xbd990577	-0.074717455
151	0x3b41ef1e	0.0029591988
152	0x3de826f2	0.11335553
153	0x3e72e9a0	0.23721933
154	0x3e890fed	0.26769963
155	0x3e76a507	0.2408639
156	0x3e866e87	0.262562
157	0xbe40463d	-0.18776794
158	0x3db5c8a0	0.08876157
159	0x3e5d59e3	0.2161632
160	0xbdae2044	-0.08502248
161	0xbe3c153f	-0.1836748
162	0x3daf35aa	0.085551575
163	0xbf02017b	-0.5078351
164	0xbe5d4f26	-0.21612224
165	0xbd719826	-0.05898299
166	0xbddbeb88	-0.107382834
167	0xbdc29db6	-0.09502737
168	0x3e86b1d8	0.2630756
169	0x3c922706	0.017840873
170	0xbbcd338d	-0.006262249
171	0xbe1fdd62	-0.15611795
172	0xbd532a52	-0.05155403
173	0xbefecc48	-0.4976523
174	0xbd0987a3	-0.03357662
175	0x3d4a699e	0.04941713
176	0xbdbdfc3f	-0.09276628
177	0xbe0d6d9d	-0.13811345
178	0xbe40fa1d	-0.1884541
179	0x3dedacb4	0.11605206
180	0x3dc61b7b	0.0967321
181	0x3e9ea4aa	0.30985004
182	0xbdf5db47	-0.120047145
183	0x3e02c3f1	0.12770058
184	0xbe20a091	-0.15686251
185	0x3bf9cd96	0.0076233847
186	0xbd132b13	-0.03592975
187	0x3e22fb4d	0.15916176
188	0xbe041e60	-0.12902212
189	0x3d87eedc	0.06637356
190	0x3e774b52	0.24149826
191	0x3e0a7200	0.1352005
192	0xbebf0343	-0.37307176
193	0x3e1d0cf7	0.15336977
194	0xbe4c0841	-0.19925024
195	0xbea01744	-0.3126775
196	0xbcb9b4bc	-0.022669189
197	0x3f1108ea	0.56654227
198	0xbdfe39fc	-0.124134034
199	0x3e29da04	0.16587073
200	0x3df5e264	0.12006071
201	0x3c773b8f	0.0150898835
202	0xbe2f6056	-0.17126593
203	0xbe870857	-0.2637355
204	0x3e971cf9	0.29514292
205	0x3e59a305	0.21253593
206	0x3c5d7808	0.013517387
207	0xbe109f88	-0.14123356
208	0xbd550392	-0.052005358
209	0x3e484633	0.19558029
210	0xbc7b6814	-0.015344638
211	0xbd99ad0e	-0.07503711
212	0xbe2e54f4	-0.17024595
213	0x3ede321c	0.43397605
214	0x3e6d690d	0.23184605
215	0x3b152bde	0.0022761743
216	0x3dcdbe2f	0.1004604
217	0xbdcc8434	-0.09986153
218	0x3dabcc6b	0.08388599
219	0x3d0af241	0.033922438
220	0x3c083ec4	0.008315746
221	0x3c834bc8	0.016027346
222	0x3d8de9bb	0.06929346
223	0x3d839ce4	0.06426409
224	0xbd8bc8bc	-0.068253964
225	0xbe1632c9	-0.1466781
226	0xbde4f4ac	-0.1117948
227	0xbd03da31	-0.032190505
228	0x3e16f315	0.14741166
229	0xbc824d63	-0.015906041
230	0x3e5e7526	0.21724376
231	0x3e190543	0.14943413
232	0xbe5ac54c	-0.21364325
233	0xbd798c69	-0.06092492
234	0xbbff4454	-0.007790128
235	0x3e883cf5	0.26609007
236	0x3e9ae788	0.3025477
237	0xbe9d1397	-0.30679008
238	0xbdf77fbf	-0.120849125
239	0x3ea6ddee	0.32591194
240	0x3eb2a837	0.34893963
241	0xbdc65420	-0.09684014
242	0x3da4674b	0.08027514
243	0x3dd1123f	0.10208558
244	0xbd1b7f83	-0.0379634
245	0xbd8c0655	-0.06837145
246	0x3c2f6254	0.010704596
247	0xbd7ed304	-0.06221296
248	0xbeb849fb	-0.35993943
249	0x3e38d9f0	0.18051887
250	0xbe2a18b8	-0.16610992
251	0xbeccd758	-0.40008044
252	0x3da4d9c1	0.08049346
253	0x3e183bfd	0.14866634
254	0xbe946e02	-0.2899018
255	0xbcacaaa6	-0.021077465

context_transformer_0/ffn_layer_2/intermediate_dense/einsum/Einsum;context_transformer_0/ffn_layer_2/intermediate_dense/Relu;context_transformer_0/ffn_layer_2/intermediate_dense/add f4 [32]
0	0xbe3ff728	-0.18746626
1	0x3debb985	0.115099944
2	0xbe4820d9	-0.1954378
3	0xbe25bee5	-0.16186102
4	0xbe26a044	-0.16272074
5	0xbdd0fe4b	-0.102047525
6	0xbd8f0151	-0.06982673
7	0xbdfd5462	-0.1236961
8	0xbe1959f4	-0.1497572
9	0xbdc2c544	-0.09510282
10	0xbe88ef48	-0.26745057
11	0xbeb9bfcd	-0.36279145
12	0xbc0b624c	-0.0085073225
13	0xbe90a2d3	-0.28249225
14	0xbe57b32a	-0.2106444
15	0x3da476b2	0.08030452
16	0xbe437974	-0.190893
17	0xbe95bd6d	-0.29246083
18	0xbd4d1df3	-0.05007739
19	0xbefa6dee	-0.48911995
20	0xbeaf7fc5	-0.34277168
21	0xbdf6b6d6	-0.12046592
22	0xbe34dbfa	-0.1766204
23	0xbdee68ed	-0.11641107
24	0xbe9d57c5	-0.30731025
25	0xbe55f327	-0.20893537
26	0x3d344ecd	0.044020463
27	0xbec0968c	-0.37614858
28	0xbec015d1	-0.37516645
29	0xbe1855ab	-0.1487643
30	0x3dbb5a78	0.09148115
31	0xbecd12bd	-0.4005336

context_transformer_0/ffn_layer_1/norm/mul;context_transformer_0/ffn_layer_1/norm/add;context_transformer_0/ffn_layer_2/intermediate_dense/einsum/Einsum;context_transformer_0/ffn_layer_2/intermediate_dense/Relu;context_transformer_0/ffn_layer_2/intermediate_dense/add f4 [32, 32]
0	0x3d2cd441	0.04219461
1	0x3dbf6873	0.09346094
2	0x3e0aa165	0.1353813
3	0xbd94f7d7	-0.07273834
4	0x3e3085c4	0.17238528
5	0x3d852050	0.06500304
6	0x3d7cb396	0.061694704
7	0x3d839f2f	0.06426846
8	0xbe455108	-0.19269192
9	0xbe3edd0e	-0.18639013
10	0x3eb30fd1	0.34973004
11	0xbe6be6ad	-0.23037215
12	0xbe85f0f4	-0.26160395
13	0xbd8cdc9f	-0.06878018
14	0x3def8048	0.116943896
15	0xbe18db34	-0.1492737
16	0x3e326cdf	0.17424344
17	0x3e83d171	0.2574573
18	0x3d7148c9	0.058907304
19	0xbd2101cb	-0.03930835
20	0x3e8dff0b	0.27733645
21	0x3cd6a90c	0.026203655
22	0xbe3168c4	-0.17325121
23	0x3e154604	0.1457749
24	0x3db619ce	0.088916406
25	0x3d47beba	0.048765875
26	0x3ebcfe6c	0.36912858
27	0x3e6acc98	0.22929609
28	0x3e491a7f	0.19639014
29	0xbdf596e4	-0.11991671
30	0xbe68269b	-0.22670977
31	0xbd0238aa	-0.03179232
32	0xbea89c92	-0.32931954
33	0xbdb73421	-0.0894549
34	0x3d3e7cb5	0.04650565
35	0xbd582edb	-0.05277906
36	0x3e9b305d	0.30310336
37	0x3dedc411	0.11609662
38	0x3d95ef72	0.07321061
39	0xbd8a4eb0	-0.0675329
40	0xbe763d46	-0.24046811
41	0xbe6c6adf	-0.23087643
42	0xbb95b334	-0.004568482
43	0x3d84c562	0.0648296
44	0x3d6bdfe0	0.05758655
45	0xbe0a49db	-0.13504736
46	0xbe1602fb	-0.14649574
47	0xbd14fe7c	-0.036375508
48	0x3e0e6547	0.13905822
49	0x3e398437	0.18116842
50	0x3d4686a5	0.04846825
51	0x3e86874e	0.26275104
52	0x3e00a94e	0.12564585
53	0xbaad4476	-0.0013219255
54	0xbe85007b	-0.2597693
55	0x3db4fe13	0.08837523
56	0xbe0bb665	-0.13643797
57	0x3cc5a3d9	0.02412598
58	0x3d762c1b	0.060100656
59	0x3d0d6121	0.034516457
60	0x3e9a39b3	0.30122146
61	0xbea81b40	-0.3283329
62	0xbe0f92ef	-0.14020894
63	0x3d921585	0.07133011
64	0xbdfaf5b7	-0.12253898
65	0xbdb3bdca	-0.08776434
66	0x3debe6fd	0.11518667
67	0xbe34cceb	-0.17656295
68	0x3e847b2d	0.25875226
69	0xbe0d6955	-0.13809712
70	0x3e8d6a4c	0.2762016
71	0xbe00e63b	-0.12587826
72	0xbdc70295	-0.09717289
73	0xbe1e7dba	-0.15477648
74	0xbe5db5e0	-0.21651411
75	0x3e3ed977	0.18637644
76	0xbcf01440	-0.029306531
77	0xbc88a607	-0.01668073
78	0xbd0849f2	-0.033273645
79	0x3e833486	0.2562601
80	0x3dac9f0b	0.084287725
81	0xbeae066c	-0.33989275
82	0xbc449f78	-0.012000911
83	0x3ef88870	0.48541594
84	0x3e67e649	0.2264644
85	0x3e9dcda5	0.30820957
86	0xbd0b895a	-0.034066536
87	0xbe7b6f97	-0.24554287
88	0x3ca68556	0.020327251
89	0x3e6cd389	0.2312757
90	0x3e2beb0c	0.16788882
91	0x3c8b8342	0.017030362
92	0x3e06337b	0.13105576
93	0xbe813d13	-0.25241908
94	0x3e3ddf6c	0.1854226
95	0xbe981b7e	-0.29708475
96	0xbbccfc52	-0.006255665
97	0x3c57befe	0.013168095
98	0x3d904851	0.07045043
99	0xbe351b60	-0.17686224
100	0xbe201109	-0.15631498
101	0x3db7d2c7	0.089757495
102	0xbd8a9901	-0.067674644
103	0x3e885a2a	0.2663129
104	0xbdb5d16c	-0.08877835
105	0x3e457d68	0.1928612
106	0x3eb245bf	0.34818837
107	0x3e2e365f	0.17012928
108	0x3dc41121	0.095735796
109	0xbe4386cd	-0.19094391
110	0xbe2441ff	-0.160408
111	0x3e922d3e	0.28550142
112	0xbdd792fc	-0.10526082
113	0xbdcad557	-0.099039726
114	0xbc79ed47	-0.015254325
115	0x3e275ac1	0.16343214
116	0xbe702f10	-0.23455453
117	0xbe0a7df3	-0.13524608
118	0xbe4d484a	-0.20047107
119	0xbe13025d	-0.1435637
120	0x3e926ae6	0.28597182
121	0x3c52c73f	0.012864887
122	0x3d0a9739	0.033835623
123	0x3e2661cb	0.16248243
124	0xbd52b93a	-0.051446177
125	0xbcd80c8f	-0.026373176
126	0x3ea51dc5	0.32249275
127	0xbe35b8ae	-0.17746231
128	0x3d2e0d90	0.042493403
129	0x3d8a8988	0.06764513
130	0xbe7cdbd9	-0.2469324
131	0xbebb2ede	-0.36559194
132	0xbdd5ffe8	-0.10449201
133	0xbce385de	-0.027773794
134	0x3dab04ec	0.08350548
135	0x3ef1c447	0.4722006
136	0x3daf820f	0.085697286
137	0x3e0e3332	0.13886717
138	0x3df8bb93	0.12145152
139	0x3ce7e792	0.028308664
140	0xbe5c668d	-0.21523495
141	0xba89dccd	-0.0010518074
142	0x3db84818	0.08998126
143	0x3d33ec83	0.043926727
144	0xbde6b5d9	-0.112651534
145	0xbd406e05	-0.046979923
146	0xbd011fae	-0.031524353
147	0xbe2f212b	-0.17102496
148	0x3b800c09	0.0039076847
149	0xbb34198f	-0.0027481054
150	0xbe0bf92a	-0.13669267
151	0xbe0e7435	-0.13911517
152	0x3d9b7a9a	0.07591744
153	0xbe056ade	-0.13029048
154	0xbcedb915	-0.029018918
155	0x3df54c27	0.119774155
156	0x3d19a663	0.037512194
157	0x3cb6751e	0.022272643
158	0xbe8bf3cc	-0.2733444
159	0xbeb90d47	-0.36142942
160	0x3e41e403	0.18934636
161	0x3dab77bb	0.08372446
162	0x3dc31418	0.09525317
163	0xbbc1ce5d	-0.005914493
164	0x3ecb5174	0.3971058
165	0x3e177d90	0.14793992
166	0xbeb553e0	-0.35415554
167	0x3e882ed4	0.26598227
168	0xbcc9e6f9	-0.02464627
169	0xbcdd89ae	-0.02704319
170	0xbe0408a0	-0.12893915
171	0xbcd04342	-0.025422696
172	0xbd49be45	-0.04925372
173	0x3daa604c	0.083191484
174	0x3c42e3ae	0.011895103
175	0x3e11d8cf	0.14242862
176	0x3e2d6ddf	0.16936444
177	0x3d22d7fe	0.039756767
178	0xbae29f94	-0.001728999
179	0x3bd3f44f	0.006468333
180	0x3db029f3	0.08601751
181	0xbe288d72	-0.16460207
182	0xbcc05b04	-0.0234809
183	0x3d9f8682	0.07789327
184	0xbdf539f6	-0.11973946
185	0x3ce8d831	0.0284234
186	0x3ea11263	0.3145934
187	0x3e453e94	0.19262153
188	0xbc246f30	-0.010036275
189	0xbe44def7	-0.1922568
190	0x3c79c771	0.015245304
191	0xbdcef635	-0.10105554
192	0xbca531fd	-0.020165438
193	0x3c466a8a	0.012110362
194	0x3e30300c	0.17205828
195	0xbd767705	-0.0601721
196	0x3e0d0b90	0.13773942
197	0xbd80ea83	-0.062947296
198	0xbead3b04	-0.33834088
199	0x3eb32738	0.3499086
200	0x3db6fb28	0.08934623
201	0xbe69eb9c	-0.22843784
202	0xbdcb466b	-0.099255405
203	0xbd8bdfbb	-0.068297826
204	0x3d67f0b8	0.05662605
205	0x3e29c39d	0.16578527
206	0xbe7968f0	-0.24356437
207	0x3d2ed3ad	0.04268234
208	0x3e0cc8cc	0.13748473
209	0x3daf576c	0.08561596
210	0x3d6ba1c1	0.057527307
211	0x3e83443d	0.25638
212	0x3c75d5ae	0.0150045585
213	0x3d1bcdf1	0.038038198
214	0xbd24be75	-0.040220696
215	0x3d230ec6	0.03980901
216	0x3d0d339c	0.034473047
217	0xbde43bd9	-0.111442275
218	0x3e0802c2	0.13282302
219	0xbe2783bf	-0.16358851
220	0xbe03be6c	-0.12865609
221	0xbde6ea95	-0.11275212
222	0xbdb31d94	-0.08745876
223	0x3e8a37b6	0.2699563
224	0xbccc9af1	-0.024976226
225	0x3e012e95	0.12615426
226	0x3e7653a4	0.24055344
227	0xbe0780c4	-0.13232714
228	0x3d145a8e	0.036219172
229	0xbe56963b	-0.20955746
230	0xbd886e25	-0.066616334
231	0x3bf1d576	0.007380183
232	0x3d1e184f	0.0385974
233	0xbbc9d41d	-0.006159319
234	0x3e6ed5ec	0.23323792
235	0xbdd70750	-0.104994416
236	0x3e8f100b	0.27941927
237	0xbcb4ec10	-0.02208522
238	0xbebe14d5	-0.3712527
239	0x3ee631db	0.44959912
240	0x3e3ae1f7	0.18250261
241	0xbe65ec7b	-0.22453491
242	0xbcce00b0	-0.025146812
243	0x3de38a9d	0.11110423
244	0x3e0bec22	0.13664296
245	0x3d82a438	0.063789785
246	0xbdffcdd1	-0.12490428
247	0x3dd4a3aa	0.10382779
248	0xbeb86800	-0.36016846
249	0x3dc46ed9	0.09591455
250	0xbc30fd50	-0.010802582
251	0xbe25be63	-0.16185908
252	0xbe274e6d	-0.16338511
253	0xbdcbf31b	-0.09958478
254	0x3e4aae0f	0.1979296
255	0x3ea53a7a	0.32271177

context_transformer_0/ffn_layer_3/intermediate_dense/einsum/Einsum;context_transformer_0/ffn_layer_3/intermediate_dense/Relu;context_transformer_0/ffn_layer_3/intermediate_dense/add f4 [32]
0	0xbe35e3bf	-0.1776266
1	0xbc1459e9	-0.009054639
2	0xbe6fcd3b	-0.23418133
3	0xbd08c0bc	-0.03338693
4	0xbddeb6fc	-0.10874745
5	0xbdaf35eb	-0.08555206
6	0xbdf97b32	-0.12181701
7	0xbe2158af	-0.15756486
8	0xbd96188d	-0.073289014
9	0xbdb98372	-0.09058274
10	0xbe838ce4	-0.2569343
11	0x3e15e035	0.1463631
12	0xbd8ae94b	-0.06782778
13	0xbe2ae229	-0.16687836
14	0xbddbe23e	-0.10736512
15	0xbe545862	-0.2073684
16	0x3d811dd7	0.063045196
17	0xbda73e62	-0.081661955
18	0xbe7720e4	-0.2413364
19	0xbda0114c	-0.07815799
20	0xbdb535f1	-0.08848179
21	0xbe07bde7	-0.13256036
22	0xbd83dc57	-0.06438511
23	0xbdeb83ca	-0.11499746
24	0xbde97ca5	-0.11400727
25	0xbe3bac8d	-0.18327542
26	0xbcdb5d71	-0.026777955
27	0xbc743f8f	-0.014907732
28	0x3d93b1fb	0.072116815
29	0xbd93361a	-0.071880534
30	0xbe1a98e4	-0.15097386
31	0xbd648f6a	-0.055800833
